…
################# Settings ###################
num_splits:  10
k_start:  -1
k_end:  -1
task:  task_5_EGFR
max_epochs:  200
results_dir:  ./results
lr:  0.0002
experiment:  EGFR_ruby
reg:  1e-05
label_frac:  1.0
bag_loss:  ce
seed:  1
model_type:  clam_sb
model_size:  small
use_drop_out:  False
weighted_sample:  True
opt:  adam
bag_weight:  0.7
inst_loss:  svm
B:  8
split_dir:  splits/task_5_EGFR_100

Training Fold 0!

Init train/val/test splits... 
Done!
Training on 258 samples
Validating on 66 samples
Testing on 66 samples

Init loss function... Done!

Init Model... Setting tau to 1.0
Done!
CLAM_SB(
  (attention_net): Sequential(
    (0): Linear(in_features=1000, out_features=512, bias=True)
    (1): ReLU()
    (2): Attn_Net_Gated(
      (attention_a): Sequential(
        (0): Linear(in_features=512, out_features=256, bias=True)
        (1): Tanh()
      )
      (attention_b): Sequential(
        (0): Linear(in_features=512, out_features=256, bias=True)
        (1): Sigmoid()
      )
      (attention_c): Linear(in_features=256, out_features=1, bias=True)
    )
  )
  (classifiers): Linear(in_features=512, out_features=2, bias=True)
  (instance_classifiers): ModuleList(
    (0): Linear(in_features=512, out_features=2, bias=True)
    (1): Linear(in_features=512, out_features=2, bias=True)
  )
  (instance_loss_fn): SmoothTop1SVM()
)
Total number of parameters: 778503
Total number of trainable parameters: 778503

Init optimizer ... Done!

Init Loaders... number of cases
258
*********
number of cases
66
*********
number of cases
66
*********
Done!

Setup EarlyStopping... Done!


Traceback (most recent call last):
  File "main.py", line 250, in <module>
…
num_splits:  10
k_start:  -1
k_end:  -1
task:  task_3_biomarker
max_epochs:  200
results_dir:  ./results
lr:  0.0002
experiment:  KRAS_ruby
reg:  1e-05
label_frac:  1.0
bag_loss:  ce
seed:  1
model_type:  clam_sb
model_size:  small
use_drop_out:  False
weighted_sample:  True
opt:  adam
bag_weight:  0.7
inst_loss:  svm
B:  8
split_dir:  splits/task_3_biomarker_100

Training Fold 0!

Init train/val/test splits... 
Done!
Training on 69 samples
Validating on 18 samples
Testing on 18 samples

Init loss function... Done!

Init Model... Setting tau to 1.0
Done!
CLAM_SB(
  (attention_net): Sequential(
    (0): Linear(in_features=1024, out_features=512, bias=True)
    (1): ReLU()
    (2): Attn_Net_Gated(
      (attention_a): Sequential(
        (0): Linear(in_features=512, out_features=256, bias=True)
        (1): Tanh()
      )
      (attention_b): Sequential(
        (0): Linear(in_features=512, out_features=256, bias=True)
        (1): Sigmoid()
      )
      (attention_c): Linear(in_features=256, out_features=1, bias=True)
    )
  )
  (classifiers): Linear(in_features=512, out_features=2, bias=True)
  (instance_classifiers): ModuleList(
    (0): Linear(in_features=512, out_features=2, bias=True)
    (1): Linear(in_features=512, out_features=2, bias=True)
  )
  (instance_loss_fn): SmoothTop1SVM()
)
Total number of parameters: 790791
Total number of trainable parameters: 790791

Init optimizer ... Done!

Init Loaders... number of cases
69
*********
number of cases
18
*********
number of cases
18
*********
Done!

Setup EarlyStopping... Done!


batch 19, loss: 0.6683, instance_loss: 0.4983, weighted_loss: 0.6173, label: 1, bag_size: 1000
…
